model/snn_final.pth (torch, 618207 bytes, 4 tensors)

model.1.weight f4 [50, 3072]
0.06351684 0.061156258 0.09722177 0.05444263 0.022783155 0.040422782 0.04205569 -0.0013776186
0.012683188 0.041638006 0.062209267 0.071461774 0.012891775 0.00164818 -0.050012447 -0.06057006
-0.01660862 0.0036390435 0.010421347 -0.03705665 -0.037804577 -0.024361484 0.007487169 0.032263186
0.06388219 0.0638539 0.036394127 0.020485142 -0.0073328787 0.058088083 0.056267798 0.04749344
0.0692562 0.016216533 0.038272142 0.035465416 -0.01404551 -0.011144691 -0.0432989 -0.010173331
-0.042026546 -0.0053267223 0.048436932 0.041215267 0.03196081 0.051360086 0.02172578 -0.033565987
0.004070563 0.010554029 -0.053402256 -0.074049115 -0.045034956 -0.08106135 -0.034217067 0.014175509
0.013734319 0.0559529 -0.014316689 -0.010138205 0.023567505 0.046524912 0.037510578 0.06652961
0.11372722 0.08851793 0.036167733 0.036917064 -0.017621847 -0.029248811 -0.032511294 -0.039884686
-0.0032944118 0.02224018 0.01047666 -0.009579514 -0.08403879 -0.065610275 0.017294794 -0.010489335
-0.006738591 -0.02218268 -0.07502127 -0.07594856 -0.012368409 -0.024193035 -0.057808597 0.018745042
0.04950737 0.03030903 -0.032562967 -0.044826847 -0.003948743 0.00096779683 -0.01301759 0.060870405
0.09288139 0.046199337 0.045808814 0.03471291 0.05143814 0.018518826 0.0024537235 -0.038978644
0.0042693308 0.021046704 -0.0064477148 -0.06347709 -0.14263397 -0.084058106 0.019774001 0.008096586
-0.037067126 -0.05538843 -0.013860873 -0.021960652 0.021459084 -0.022520112 -0.10112034 -0.0067576505
0.010468041 0.015274249 0.004187144 -0.048197206 -0.022095943 0.011388465 0.010241361 0.03237804
0.08642331 0.032976843 0.058501508 0.0260457 0.0051273503 0.037305642 0.0444537 -0.009657802
0.019235404 0.017558683 -0.046050493 -0.05541733 -0.08303401 -0.047888577 -0.020977236 0.008297474
0.013225052 -0.01938601 0.016209874 0.020374157 -0.008412908 -0.01682451 -0.06606341 -0.035422537
0.013560961 0.04720904 0.035365187 -0.027877416 -0.00570907 0.021037363 0.030643329 0.01869808
0.08187641 0.0058159432 0.019531991 -0.030731013 -0.021256812 -0.016189888 -0.011994167 -0.04234594
0.02051496 0.014852129 -0.026921958 -0.0033949101 0.007065703 -0.007371398 0.04072458 0.05619511
0.027622767 0.040337007 0.058494557 0.048905473 0.04267225 0.07619781 0.058907162 0.068471916
0.11123454 0.15626001 0.15038566 0.010908194 -0.029540887 0.06071033 0.019919116 0.050731875
0.022803681 0.01896602 -0.03727467 -0.02794785 -0.004386292 -0.043352894 0.0035373305 0.011208044
0.082195796 0.053766984 -0.001257963 0.010461813 -0.0057198824 0.055266127 0.060820807 0.019587927
-0.002065515 -0.022809295 -0.01374611 0.02995896 0.054806974 0.111401685 0.06415877 0.07369913
0.106169835 0.1406677 0.10093026 -0.011340633 0.0035317403 0.039897226 0.022081664 0.07889647
0.0318799 0.03413163 -0.02484506 -0.041151874 0.052356433 0.010350074 0.023910351 0.08509784
0.15267554 0.1161287 0.059608635 0.07808394 0.06590705 0.07351636 0.038835205 0.06288518
-0.004922034 -0.024544971 -0.007970267 0.0007062975 0.0760605 0.06315602 0.072729476 0.08364758
0.051225293 0.07407328 0.07495324 0.024312166 0.02382151 -0.018101342 0.010158746 0.03970543
00000000: 1e15 823d fc7e 7a3d 351c c73d 3cff 5e3d
00000010: bda3 ba3c 5c92 253d 9642 2c3d 3691 b4ba
00000020: 25cd 4f3c 9d8c 2a3d 25cf 7e3d 8d5a 923d
00000030: 0638 533c be07 d83a dad9 4cbd 5018 78bd
00000040: cd0e 88bc 057d 6e3b 4cbe 2a3c b7c8 17bd
00000050: f9d8 1abd bc91 c7bc ed56 f53b 6726 043d
00000060: aad4 823d d5c5 823d 0212 153d 75d0 a73c
00000070: a548 f0bb c5ed 6d3d 1079 663d 7b88 423d
00000080: 32d6 8d3d 89d8 843c 40c3 1c3d 2f44 113d
00000090: 241f 66bc 3998 36bc 305a 31bd 0bae 26bc
000000a0: 0724 2cbd c98b aebb ce65 463d 57d1 283d
000000b0: 57e9 023d f45e 523d 43fa b13c 7d7c 09bd
000000c0: 5b62 853b ceea 2c3c 53bc 5abd 10a7 97bd
000000d0: 9376 38bd 7e03 a6bd 3227 0cbd 6540 683c
000000e0: e905 613c de2e 653d 8c90 6abc b71a 26bc
000000f0: a410 c13c e890 3e3d b1a4 193d ad40 883d
00000100: d1e9 e83d e348 b53d 9e24 143d 5936 173d
00000110: b15b 90bc 349b efbc 902a 05bd 205e 23bd
00000120: 0fe7 57bb 0a31 b63c 4ca6 2b3c 65f3 1cbc
00000130: 871c acbd ae5e 86bd d0ad 8d3c 76db 2bbc
00000140: 66cf dcbb 74b8 b5bc c0a4 99bd eb8a 9bbd
00000150: dea4 4abc 7930 c6bc b5c8 6cbd 348f 993c
00000160: 3dc8 4a3d a54a f83c bf60 05bd 5b9c 37bd
00000170: 7564 81bb bfb3 7d3a bb47 55bc 3f53 793d
00000180: 9938 be3d 843b 3d3d 06a2 3b3d 202f 0e3d
00000190: cdb0 523d cbb4 973c a6ce 203b 12a8 1fbd
000001a0: bee5 8b3b 236a ac3c 5a47 d3bb 4700 82bd
000001b0: a40e 12be a826 acbd 16fd a13c 8ba7 043c
000001c0: b3d3 17bd fade 62bd b718 63bc d3e6 b3bc
000001d0: f6ca af3c 197c b8bc 2e18 cfbd 486f ddbb
000001e0: 2582 2b3c d840 7a3c 4f34 893b 6f6a 45bd
000001f0: 8d02 b5bc af96 3a3c 62cb 273c d69e 043d
00000200: b4fe b03d ba12 073d 479f 6f3d cb5d d53c
00000210: 5503 a83b cdcd 183d 1515 363d c23b 1ebc
00000220: 9193 9d3c 3ad7 8f3c 719f 3cbd 48fd 62bd
00000230: bc0d aabd d026 44bd 74d8 abbc 21f2 073c
00000240: e3ad 583c 69cf 9ebc 92ca 843c b4e7 a63c
00000250: 4bd6 09bc 8ed3 89bc 414c 87bd 3917 11bd
00000260: cb2e 5e3c 445e 413d 16db 103d 2e5f e4bc
00000270: 2613 bbbb 8c56 ac3c b807 fb3c b72c 993c
00000280: d2ae a73d ab93 be3b 8e01 a03c 9bbf fbbc
00000290: c422 aebc a8a0 84bc 2f83 44bc f072 2dbd
000002a0: fd0e a83c 5856 733c 708b dcbc 247d 5ebb
000002b0: 6a87 e73b c58b f1bb d1ce 263d d82c 663d
000002c0: 2449 e23c 6b38 253d fd97 6f3d 1b51 483d
000002d0: 19c9 2e3d 990d 9c3d a348 713d 013b 8c3d
000002e0: efce e33d a002 203e b3fe 193e 48b8 323c
000002f0: bbff f1bc 65ab 783d 6a2d a33c 3acc 4f3d
00000300: c9ce ba3c a05e 9b3c 53ad 18bd e4f2 e4bc
00000310: e2ba 8fbb ce92 31bd 8fd2 673b f2a1 373c
00000320: 4556 a83d c53a 5c3d 3ce2 a4ba 0668 2b3c
00000330: da6d bbbb bc5e 623d 3d1f 793d dc76 a03c
00000340: 975d 07bb 8fda babc 5d37 61bc 7e6c f53c
00000350: 477d 603d 9126 e43d ac65 833d 92ef 963d
00000360: 926f d93d 320b 103e 86b4 ce3d 10ce 39bc
00000370: c574 673b 466b 233d 9be4 b43c 7994 a13d
00000380: 7f94 023d 9ccd 0b3d de87 cbbc de8e 28bd
00000390: b373 563d 5b93 293c a4df c33c c747 ae3d
000003a0: fa56 1c3e e2d4 ed3d 2f28 743d 79ea 9f3d
000003b0: 47fa 863d bf8f 963d aa11 1f3d f2c9 803d
000003c0: 0449 a1bb 8912 c9bc b995 02bc d326 393a
000003d0: 9cc5 9b3d f257 813d 31f3 943d 6c4f ab3d
000003e0: 9dd1 513d bbb3 973d 1681 993d 4f2a c73c
000003f0: 5425 c33c 4449 94bc de70 263c 29a2 223d

model.1.bias f4 [50]
0.6144353 0.39147618 -0.49700928 0.7584763 -0.58633035 -0.061183956 -0.40279 -0.17137781
0.26360452 0.040797666 -0.057887703 0.48371664 -0.18433076 0.31525236 -0.68092257 -0.41155583
0.7041209 -0.822015 0.042810857 -0.19668333 0.6260894 0.35953817 0.22860174 0.4837107
0.17257042 -0.5134903 0.7774019 -0.35313147 0.023623612 0.8114501 -0.67350024 0.623312
0.06573179 0.044971295 -0.89927274 0.57951134 0.34094492 -0.26751077 -0.25840288 0.7756554
-0.26629263 1.0732081 0.7939007 0.12530704 0.09845727 -0.066880085 -0.42280537 -1.4490933
0.28590316 -0.7293936
00000000: a24b 1d3f 916f c83e 0078 febe 812b 423f
00000010: bf19 16bf 079c 7abd 7e3a cebe aa7d 2fbe
00000020: 2cf7 863e 741b 273d a81b 6dbd b5a9 f73e
00000030: 34c1 3cbe c268 a13e f150 2ebf 72b7 d2be
00000040: 4441 343f 936f 52bf 705a 2f3d 5b67 49be
00000050: 6547 203f 6315 b83e 9316 6a3e eea8 f73e
00000060: 4db6 303e 1a74 03bf d003 473f a6cd b4be
00000070: 4e86 c13c 32bb 4f3f 836a 2cbf 6091 1f3f
00000080: 649e 863d d233 383d bd36 66bf db5a 143f
00000090: 5590 ae3e 2cf7 88be 624d 84be 5a91 463f
000000a0: 8257 88be e25e 893f 143d 4b3f 7d50 003e
000000b0: f7a3 c93d 6df8 88bd f279 d8be e47b b9bf
000000c0: e661 923e 8ab9 3abf

model.3.weight f4 [10, 50]
0.086176254 -0.08282155 -0.02095102 0.055551205 -0.020910686 0.16337104 0.048866436 0.089206666
0.08448792 0.19584325 0.19986697 -0.13628529 0.11371214 -0.06943484 0.186607 0.14444904
-0.05007257 0.025814066 -0.19736601 0.008620425 0.14036635 0.16824909 0.07781599 -0.07580428
-0.09054754 0.15695183 -0.2954928 0.0955253 0.08194024 0.10202357 -0.005195879 -0.0019456323
0.20367397 -0.07038429 -0.07409626 -0.15449686 -0.20088351 -0.21587428 0.028488789 -0.05571899
-0.16917218 0.15301874 -0.08474624 -0.06448073 -0.022995755 0.26607743 0.102838896 0.15898228
0.0021031795 0.12110794 -0.3257441 -0.18553811 -0.11930698 -0.2340345 0.07376096 -0.08256163
0.12840283 -0.046786267 -0.25925407 -0.027333518 -0.26877236 -0.19999574 -0.048943646 -0.07801074
0.28809312 0.2265402 0.036982812 0.14876853 0.15804225 0.046402805 -0.089699924 -0.25510657
0.10331069 -0.01663641 0.12351815 0.23629424 -0.40879914 0.12615022 0.026094452 0.016395029
0.16563475 -0.2913039 -0.024445694 0.28078547 0.22382529 0.012896335 0.03380975 0.09960319
-0.12983398 -0.15267396 0.21879737 0.022694504 -0.019486953 -0.086082496 0.34298098 -0.14486015
0.3822816 0.34540293 -0.10718461 0.19098924 0.049530253 0.14862671 0.06457542 0.15532194
-0.12003254 -0.090846516 -0.099246025 -0.12268316 0.06754902 0.13583335 0.014495749 -0.004301917
-0.04937047 0.09104563 -0.1926318 -0.17972761 0.06316911 -0.09336554 -0.08065837 -0.00045396856
0.27075183 -0.11821664 0.03530327 0.09886559 -0.01236232 -0.049236584 0.027078541 0.073668845
0.06394073 0.1404556 -0.12999777 0.043481134 -0.051179256 -0.11510587 -0.29686946 -0.04181158
-0.019207183 -0.09323788 -0.04386649 0.15565473 0.0888453 0.2041818 0.05853279 0.02986218
-0.042400807 0.039605495 0.11470401 -0.12592265 -0.015008406 -0.10661373 0.06930749 0.08930043
-0.01523238 0.050464127 0.15363744 -0.0008371663 0.0826696 0.11062361 0.044467084 0.04471487
0.040830683 0.026792794 0.07110567 -0.09024943 -0.0119473925 -0.045249276 0.08034105 -0.055691194
-0.023559384 0.009022052 -0.12157806 -0.0805775 0.06459546 0.08455584 -0.09916519 0.025148645
0.25464255 -0.0867639 0.112001956 0.055801623 -0.06790193 -0.012638852 0.014353493 -0.095911436
-0.12528174 0.21615632 -0.022361739 -0.10255603 -0.10808008 0.05158736 -0.0995318 -0.0917482
0.23636965 0.058136027 -0.17098899 -0.14017576 0.056319177 -0.19573674 0.0006077597 -0.12984367
0.049808167 0.1180433 0.08956795 0.13119371 -0.16592903 0.032311346 -0.15574132 -0.20117086
-0.013481087 -0.04986047 -0.17469497 0.14832373 0.060146287 -0.046810944 -0.13191904 -0.10458795
0.15380003 -0.1784596 0.120213896 -0.01705464 0.08561841 0.067934185 0.14511211 0.11270506
0.10504936 -0.03103523 0.28064927 0.078084715 -0.06253391 0.103928104 -0.072305396 0.03681454
-0.14564627 0.015913393 -0.19914874 -0.16155513 -0.0072186603 -0.09945033 0.081138186 0.26995736
0.11986965 0.32821316 0.10746847 -0.03461481 -0.07485564 -0.05986289 -0.32030097 0.056550384
0.028873706 -0.097712874 0.107730076 0.00078085414 0.046329744 0.04665947 0.10052793 -0.1449394
00000000: 2d7d b03d 589e a9bd 79a1 abbc a989 633d
00000010: e34c abbc bd4a 273e 2c28 483d fcb1 b63d
00000020: 0108 ad3d 228b 483e eda9 4c3e 5f8e 0bbe
00000030: e9e1 e83d da33 8ebd e815 3f3e 73ea 133e
00000040: e518 4dbd 0578 d33c 511a 4abe af3c 0d3c
00000050: 32bc 0f3e 7d49 2c3e fd5d 9f3d 463f 9bbd
00000060: fd70 b9bd fbb7 203e d54a 97be c5a2 c33d
00000070: 49d0 a73d bcf1 d03d 3142 aabb 9604 ffba
00000080: e98f 503e a325 90bd c8bf 97bd 6d34 1ebe
00000090: 68b4 4dbe 260e 5dbe 5261 e93c 9839 64bd
000000a0: 793b 2dbe f2b0 1c3e 708f adbd 790e 84bd
000000b0: 9861 bcbc 4d3b 883e 339d d23d 40cc 223e
000000c0: 7fd5 093b 7107 f83d eec7 a6be b4fd 3dbe
000000d0: 3857 f4bd bda6 6fbe fc0f 973d 1216 a9bd
000000e0: 087c 033e f5a2 3fbd f3bc 84be 8bea dfbc
000000f0: 889c 89be afcb 4cbe 2279 48bd 18c4 9fbd
00000100: f180 933e 27fa 673e 4a7b 173d c756 183e
00000110: d4d5 213e de10 3e3d 98b4 b7bd 549d 82be
00000120: 8e94 d33d 1549 88bc 15f7 fc3d 1ef7 713e
00000130: 1f4e d1be 862d 013e 08c4 d53c de4e 863c
00000140: 289c 293e c925 95be 5642 c8bc 1dc3 8f3e
00000150: 7532 653e 264b 533c 187c 0a3d c2fc cb3d
00000160: 33f3 04be 9056 1cbe 6b0c 603e d3e9 b93c
00000170: 1aa3 9fbc 054c b0bd 349b af3e 3856 14be
00000180: 6aba c33e a7d8 b03e 9b83 dbbd af92 433e
00000190: 3ce0 4a3d 9a31 183e 1e40 843d b70c 1f3e
000001a0: 9fd3 f5bd bd0d babd 8041 cbbd 4f41 fbbd
000001b0: 2457 8a3d e617 0b3e 947f 6d3c 18f7 8cbb
000001c0: b138 4abd 2276 ba3d 4541 45be 840a 38be
000001d0: ce5e 813d 6f36 bfbd 3730 a5bd a102 eeb9
000001e0: fc9f 8a3e 911b f2bd 299a 103d 0b7a ca3d
000001f0: 548b 4abc 4dac 49bd d1d3 dd3c b1df 963d
00000200: 5cf3 823d 98d3 0f3e 231e 05be 4619 323d
00000210: 57a1 51bd a0bc ebbd 46ff 97be 9f42 2bbd
00000220: 6258 9dbc 80f3 bebd 59ad 33bd f463 1f3e
00000230: 86f4 b53d 0915 513e 14c0 6f3d 88a1 f43c
00000240: 78ac 2dbd 5f39 223d f0e9 ea3d def1 00be
00000250: d1e5 75bc 4d58 dabd 16f1 8d3d 25e3 b63d
00000260: 3b91 79bc 79b3 4e3d 2253 1d3e 4875 5bba
00000270: ae4e a93d a28e e23d 1e23 363d f126 373d
00000280: 133e 273d 907c db3c d99f 913d b1d4 b8bd
00000290: ffbe 43bc 4e57 39bd d989 a43d 731c 64bd
000002a0: 9cff c0bc 3bd1 133c ebfd f8bd d105 a5bd
000002b0: a04a 843d 9d2b ad3d 1e17 cbbd 8804 ce3c
000002c0: 8260 823e 46b1 b1bd 4861 e53d 3e90 643d
000002d0: 2b10 8bbd 3013 4fbc ea2a 6b3c 376d c4bd
000002e0: db49 00be 1558 5d3e f72f b7bc e508 d2bd
000002f0: 1759 ddbd 454d 533d 54d7 cbbd 7be6 bbbd
00000300: e30a 723e 0b20 6e3d bd17 2fbe 3c8a 0fbe
00000310: f0ae 663d 366f 48be 1052 1f3a bdf5 04be
00000320: a603 4c3d b0c0 f13d 676f b73d a557 063e
00000330: 4de9 29be e758 043d a77a 1fbe bcff 4dbe
00000340: c7df 5cbc 7e3a 4cbd 3de3 32be 2de2 173e
00000350: f45b 763d d5bc 3fbd c915 07be 3532 d6bd
00000360: c17d 1d3e 1dbe 36be b432 f63d 2cb6 8bbc
00000370: b458 af3d 1421 8b3d 4598 143e e9d1 e63d
00000380: 1e24 d73d 983d febc 43b1 8f3e e1ea 9f3d
00000390: c711 80bd 42d8 d43d da14 94bd d8ca 163d
000003a0: 4c24 15be ce5c 823c a6ed 4bbe b56e 25be
000003b0: 838a ecbb 9dac cbbd c72b a63d da37 8a3e
000003c0: 387e f53d 8e0b a83e 6e18 dc3d 42c8 0dbd
000003d0: ea4d 99bd ca32 75bd 7dfe a3be 60a1 673d
000003e0: 8d88 ec3c b01d c8bd 96a1 dc3d 3cb2 4c3a
000003f0: 42c4 3d3d 001e 3f3d 96e1 cd3d fe6a 14be

model.3.bias f4 [10]
0.08692345 -0.3267129 0.54375327 0.68083966 -0.02231276 0.62704474 -0.234501 -0.17994568
-0.67571527 -0.68243486
00000000: ec04 b23d ea46 a7be 6a33 0b3f 824b 2e3f
00000010: 40c9 b6bc 0186 203f 0821 70be ae43 38be
00000020: adfb 2cbf 0db4 2ebf
