model/test.pth (torch, 618207 bytes, 4 tensors)

model.1.weight f4 [50, 3072]
0	0x3c5b5b10	0.01338841
1	0x3b4683d1	0.003029097
2	0x3ad27e5c	0.0016059387
3	0x3c051b79	0.008124226
4	0x3d09e51c	0.03366576
5	0x3cb7fd98	0.02245979
6	0x3b923640	0.0044620335
7	0xbc3126ef	-0.010812505
8	0xbc48f0bc	-0.012264427
9	0x3c8ec6a2	0.0174287
10	0xbcbe543f	-0.023233531
11	0xbc5c1384	-0.013432387
12	0x3c4b93d4	0.012425382
13	0x3cc3bacb	0.02389278
14	0x3c92a72a	0.017901976
15	0xbb119c98	-0.0022218581
16	0xbb0e5b12	-0.0021721763
17	0xbb9ba2b8	-0.004749622
18	0x3c28bf56	0.010299524
19	0x3bdf8fee	0.0068225777
20	0xbcae7b90	-0.021299154
21	0x3c2eb1b0	0.010662481
22	0x3cd867f5	0.026416758
23	0x3add384b	0.0016877739
24	0x3c9b3012	0.01894382
25	0xbca9dfd0	-0.020736605
26	0xbc9b82e9	-0.018983321
27	0xbc7f3378	-0.015576236
28	0xbc15b48e	-0.009137286
29	0x3cd25e56	0.025679749
30	0x3d0237fc	0.031791672
31	0x3d334c57	0.043773975
32	0x3c9ef4f6	0.019403916
33	0x3cd51916	0.026012938
34	0x3ceeaeff	0.029136179
35	0x3cdbc9b1	0.026829572
36	0x3d617bc8	0.055049688
37	0x3d138685	0.03601696
38	0x3ca96855	0.020679632
39	0x3c615183	0.013752344
40	0x3cdd218e	0.02699354
41	0x3d15a79e	0.036536805
42	0x3c0fc08e	0.008773936
43	0x3d20091e	0.039071195
44	0x3d3657d0	0.04451734
45	0x3cd80d30	0.026373476
46	0x3d31b82f	0.04338854
47	0x3ca16a98	0.019704148
48	0x3af4abda	0.0018666938
49	0x3d16f348	0.036853105
50	0x3c97d575	0.018534401
51	0x3bacdba7	0.005275208
52	0x3ca9941b	0.020700505
53	0x3c8f496d	0.017491067
54	0x3c109648	0.008824892
55	0xbc5db88c	-0.013532769
56	0x3c294d97	0.01033344
57	0x3c3abadb	0.011397089
58	0xbbb5af71	-0.005544596
59	0x3c9f6c26	0.019460749
60	0xbca4e73f	-0.020129798
61	0x3b885444	0.004160436
62	0xbc7a69f3	-0.015284049
63	0x3c86ce10	0.01645568
64	0x3d2abeac	0.041685745
65	0x3d708365	0.058719058
66	0x3ce87db3	0.02838025
67	0x3d277cf6	0.040890656
68	0x3d14d151	0.036332432
69	0x3d5247de	0.05133807
70	0x3cbb5c05	0.022871027
71	0x3c4dd585	0.012563114
72	0x3d05992d	0.032616783
73	0x3ccd6a2d	0.025075043
74	0xba871fcc	-0.0010309159
75	0xbc83b232	-0.016076181
76	0x3a961d88	0.0011452893
77	0x3cf56393	0.029954707
78	0x3cd8d8d3	0.026470577
79	0x3d526c61	0.05137289
80	0x3ca34d29	0.019934254
81	0x3cf3b9ae	0.029751625
82	0x3b94ca8b	0.0045407466
83	0x3cc45c7e	0.023969885
84	0xbc50c157	-0.012741408
85	0x3c80bb89	0.015714424
86	0xbbee40aa	-0.007270892
87	0xbcbe8999	-0.023258971
88	0xbb75c2a2	-0.0037500043
89	0xbc889ca6	-0.016676258
90	0x38e81cf4	0.00011068015
91	0xbbcde8d3	-0.0062838583
92	0xbcea7520	-0.028620303
93	0xbc31450f	-0.0108196875
94	0xbc9c2575	-0.01906083
95	0x3c8bd083	0.0170672
96	0x3c9aca61	0.01889533
97	0x3d3d29a1	0.04618228
98	0x3d13f7ad	0.036124874
99	0x3cf25d71	0.029585572
100	0x3caf6b16	0.021413367
101	0x3c7f0dc1	0.015567244
102	0x3cbe7d1d	0.023253018
103	0x3ca5f82d	0.020259941
104	0x3c2a8e9d	0.010409978
105	0x3c9803fa	0.018556584
106	0xbca116b4	-0.019664146
107	0xbd2420a6	-0.0400702
108	0xbca84e85	-0.020545254
109	0xbcb0d2ac	-0.021584831
110	0x3ccffc4f	0.025388865
111	0x3d0c4baf	0.034251865
112	0x3b83c4a2	0.004021243
113	0x3cde6723	0.027148789
114	0x3ce439e0	0.027859628
115	0x3c5ca8a4	0.013467941
116	0xbb524d4e	-0.0032089534
117	0x3c3ac030	0.01139836
118	0xb9678f7e	-0.00022083332
119	0xbc90a010	-0.017654449
120	0xbc0122c8	-0.007881828
121	0xbcbac03a	-0.022796739
122	0xbd00c768	-0.03144017
123	0xbcc089e8	-0.023503259
124	0xbb8995b6	-0.004198755
125	0xbd24af91	-0.040206496
126	0xbc3cbe10	-0.011519924
127	0x3ce086dc	0.027408056
128	0x3ba8737e	0.005140721
129	0xbbb58d02	-0.005540491
130	0x3cc642e1	0.024201812
131	0x3ca47411	0.020074876
132	0xbc33244f	-0.01093395
133	0xbd0e3a0d	-0.03472333
134	0x3bb58771	0.0055398275
135	0x3cc640ae	0.024200764
136	0x3bd49904	0.0064879674
137	0xbbfb6cc9	-0.0076728803
138	0xbb211e98	-0.0024584886
139	0xbc04de2f	-0.008109613
140	0xbd3b0076	-0.045654736
141	0xbc3aa5c0	-0.011392057
142	0xbb422f73	-0.0029630333
143	0x3cfcbc56	0.030851524
144	0x3d0e1011	0.03468329
145	0x3cfc50de	0.03080028
146	0xbc16f5a3	-0.009213838
147	0xbcd5df2f	-0.026107399
148	0xbabbf2b6	-0.0014339301
149	0xbc2fe0bf	-0.010734736
150	0xbc6c512c	-0.01442365
151	0xbba176e1	-0.0049275015
152	0xbcb0b987	-0.021572841
153	0xbcdf88f3	-0.027286982
154	0xbcf779bd	-0.030209417
155	0xbc4555c3	-0.012044373
156	0x3b4cbe2f	0.0031241288
157	0xbc907b2c	-0.017636858
158	0x3ab9711d	0.001414809
159	0x3cb5679d	0.022144133
160	0x3c397660	0.011319727
161	0x3bc3a3e2	0.005970464
162	0x3cbc66af	0.022998182
163	0xbb560afd	-0.0032660358
164	0x3bd043b4	0.006355727
165	0xb9e499a8	-0.00043602032
166	0xba7c860d	-0.0009633012
167	0x3c08daee	0.008352978
168	0x3cb8b7f6	0.022548657
169	0x3cf33076	0.029686194
170	0x3d56bdd2	0.05242712
171	0x3bac61c2	0.005260677
172	0xbd319697	-0.043356504
173	0xbcd11810	-0.02552417
174	0x3ca40d4d	0.020025874
175	0xbc0d3c98	-0.008620404
176	0x3cbf28eb	0.02333494
177	0x3c287708	0.0102822855
178	0xbd294a6e	-0.041330747
179	0xbc45a643	-0.012063566
180	0x3c202474	0.009774316
181	0x3ca3958b	0.019968769
182	0x3c38a046	0.011268681
183	0x3c470c6a	0.012148956
184	0xbbf479b7	-0.0074607986
185	0xbcfb53a6	-0.030679535
186	0xbb6d7e24	-0.0036238516
187	0x3aadddfe	0.0013265011
188	0x3bfed361	0.007776663
189	0x3c4654ea	0.012105206
190	0x3ccbd6b8	0.02488266
191	0x3c1100cc	0.008850288
192	0xbb842e7a	-0.0040338608
193	0x3d28a184	0.04116966
194	0x3d3bc50a	0.045842208
195	0x3d062fcd	0.03276043
196	0x3ae47be0	0.0017431937
197	0xbc13007f	-0.008972286
198	0xbc4daac0	-0.012552917
199	0x3c9b6179	0.018967377
200	0x3c9eadc1	0.019369962
201	0xbbc6b741	-0.006064326
202	0x3d2701bf	0.04077315
203	0x3ca95624	0.020670958
204	0xbd116b1a	-0.03550253
205	0xbd022298	-0.031771272
206	0xbc0d812c	-0.008636754
207	0x3ba7d9ed	0.0051224143
208	0x3b5dc606	0.0033839955
209	0xbc158a11	-0.009127156
210	0xbd15bee3	-0.036558997
211	0xbb55f7e5	-0.0032648977
212	0x3ba63c89	0.0050731343
213	0x3d10fa43	0.03539492
214	0x3d4b4c6d	0.049633432
215	0x3cae4d75	0.021277169
216	0x3c56edad	0.01311819
217	0x3b86f1ae	0.004118166
218	0xbcac0e55	-0.021002928
219	0x3bc88527	0.0061193886
220	0x3be9a925	0.0071307593
221	0x3ca47c16	0.0200787
222	0x3caa872a	0.020816404
223	0x3cc3ef39	0.023917781
224	0x3be2038f	0.006897397
225	0x3d81bd0f	0.06334888
226	0x3d87d222	0.066318765
227	0x3d5284f3	0.05139632
228	0x3d3f6c86	0.046734355
229	0x3cac43d2	0.021028433
230	0x3c7c418b	0.015396486
231	0x3c926f19	0.017875241
232	0x3b1d979d	0.0024046667
233	0xbb2beca1	-0.002623357
234	0x3d427731	0.04747695
235	0x3bc4e298	0.0060084574
236	0xbd054d5e	-0.032544486
237	0x3bc289ca	0.005936836
238	0x3c6b0f62	0.014346929
239	0x3caa53dc	0.02079194
240	0x3b21595e	0.0024619917
241	0xbd009f3a	-0.03140185
242	0xbd1ef828	-0.03881088
243	0xbbb7738e	-0.005598492
244	0x3d1f6c4c	0.03892164
245	0x3d009705	0.031394023
246	0x3d8d47ce	0.06898461
247	0x3d0bd9cd	0.034143258
248	0x3a25ddc0	0.0006327294
249	0xbc8514e3	-0.016245311
250	0xbc76a708	-0.015054472
251	0x3c0112db	0.007878031
252	0xbc6145c6	-0.013749545
253	0x3c32993b	0.010900791
254	0x3d4e4f95	0.050368864
255	0x3d44de56	0.0480636

model.1.bias f4 [50]
0	0xbf07da6f	-0.5306768
1	0x3ea05939	0.3131807
2	0xbd86cc42	-0.06581928
3	0xbe2c5605	-0.16829689
4	0xbe5a8e3b	-0.21343319
5	0x3e03958e	0.1285002
6	0x3cd3b16b	0.025841435
7	0x3d930da0	0.07180333
8	0x3e80dfb2	0.25170666
9	0x3ea16897	0.31525108
10	0x3eb891ef	0.36048838
11	0xbda21472	-0.07914056
12	0x3d8dd5fb	0.06925579
13	0x3e7efb7b	0.2490062
14	0x3ed4964b	0.41520914
15	0x3ed206f2	0.41020924
16	0x3ec6df04	0.38842022
17	0x3ec1840c	0.37796056
18	0xbefccd7b	-0.4937552
19	0x3ea23a36	0.31685036
20	0x3b2c3212	0.0026274961
21	0xbeb223ab	-0.34792838
22	0xbc7de790	-0.015497103
23	0xbee04f99	-0.43810728
24	0x3ec83cda	0.39108926
25	0xbdc629f5	-0.096759714
26	0xbdd15257	-0.10220783
27	0x3e626764	0.22109753
28	0xbe54e12e	-0.20789024
29	0xbeadad7f	-0.3392143
30	0x3cfa4a63	0.030553048
31	0xbe1bf4b7	-0.1523007
32	0xbc81aa08	-0.015828148
33	0x3ef02627	0.46904108
34	0xbeccc86c	-0.3999666
35	0xbc0cea26	-0.008600747
36	0x3d7e320b	0.062059443
37	0xbcf5ced7	-0.030005855
38	0x3e69de2d	0.2283866
39	0xbe69386f	-0.22775434
40	0xbef00383	-0.4687768
41	0x3e3fca0c	0.18729419
42	0x3e7d35d1	0.2472756
43	0x3d379285	0.044817466
44	0x3eda7e11	0.42674306
45	0xbf109de3	-0.56490916
46	0x3ea5da75	0.32393232
47	0xbe8f2f9a	-0.27966005
48	0x3d78f4d6	0.06078037
49	0x3ead4572	0.33842045

model.3.weight f4 [10, 50]
0	0xbca84241	-0.020539405
1	0xbd9e6327	-0.077337556
2	0x3db25518	0.087076366
3	0x3de449b9	0.11146874
4	0xbce5d28a	-0.028054494
5	0xbc8d9548	-0.017283097
6	0xbd1e8969	-0.038705263
7	0x3b47d2a6	0.0030490546
8	0xbe11fbce	-0.14256212
9	0x3d448e47	0.04798725
10	0x3d5f1d65	0.054471392
11	0xbd6602cc	-0.05615501
12	0xbe5fdd3f	-0.21861742
13	0xbe14303c	-0.14471525
14	0xbd9201f4	-0.07129279
15	0x3d9bc2c2	0.076055065
16	0xbe0b55a5	-0.1360689
17	0x3dbe01ac	0.09277663
18	0x3e00474a	0.12527195
19	0xbe313dc1	-0.17308713
20	0xbd544ff5	-0.051834065
21	0x3da53394	0.08066478
22	0xbe1e8a4b	-0.15482442
23	0xbdaf5c4d	-0.08562527
24	0x3d2d4189	0.042298827
25	0x3c08df42	0.00835401
26	0x3d9847e0	0.07435584
27	0xbc20d7fe	-0.009817122
28	0x3e0230a8	0.12713873
29	0x3da04e77	0.07827466
30	0xbe19c3b5	-0.15016063
31	0xbcae875c	-0.021304779
32	0x3cb570e0	0.02214855
33	0xbe685b3d	-0.22691055
34	0xbd0a32ab	-0.033739727
35	0xbe04859b	-0.12941591
36	0xbdac9d12	-0.08428396
37	0x3bacb3c7	0.0052704546
38	0x3dc84f0a	0.097807005
39	0xbbab8729	-0.005234618
40	0x3e8ef0bc	0.2791804
41	0x3e0c8270	0.13721633
42	0x3d329626	0.043600224
43	0x3e3ff734	0.18746644
44	0xbdd7c4d7	-0.10535591
45	0x3e09ca63	0.1345611
46	0xbda2aa75	-0.07942668
47	0x3b9b3721	0.0047367965
48	0xbd5670fb	-0.05235384
49	0x3cc8351b	0.024439385
50	0x3dbd26e8	0.092359364
51	0x3c68eb9b	0.014216329
52	0x3dba68a5	0.091019906
53	0x3e5d466c	0.21608895
54	0x3dd7077c	0.104994744
55	0xbe2b7892	-0.16745213
56	0x3e48767f	0.19576453
57	0xbdee78de	-0.11644147
58	0xbbe4d7ac	-0.006983718
59	0xbe02d13d	-0.1277513
60	0xbe47c597	-0.19508968
61	0x3e685588	0.22688878
62	0x3ddcedd8	0.107875526
63	0xbe8692c2	-0.26283842
64	0x3d77fba9	0.060542736
65	0xbdc3da43	-0.095631145
66	0xbdf5cf49	-0.12002427
67	0xbe2301a1	-0.1591859
68	0x3e205e09	0.15660872
69	0xbea3c021	-0.3198252
70	0x3de60f4f	0.11233389
71	0x3e3967f1	0.18106057
72	0x3e0bb9de	0.13645121
73	0x3e618f71	0.22027375
74	0xbdf664ff	-0.12030982
75	0x3d9a6b77	0.075400285
76	0x3c9fa5de	0.019488271
77	0xbe147c81	-0.1450062
78	0xbe1e3958	-0.15451562
79	0x3e18794c	0.14890021
80	0x3d924cee	0.071435794
81	0xbd58442c	-0.05279939
82	0x3c9ba1fe	0.018998142
83	0xbe2ec59a	-0.17067567
84	0x3d80f34b	0.062964045
85	0x3cfcf59f	0.03087884
86	0x3d93276c	0.071852535
87	0xbdfb3b21	-0.12267137
88	0xbca6565b	-0.02030485
89	0x3d066066	0.032806776
90	0x3ea843a0	0.32864094
91	0xbe32b133	-0.17450409
92	0x3cd72250	0.026261479
93	0xbe8693d5	-0.26284662
94	0x3d87a73e	0.06623696
95	0x3e13aaec	0.1442067
96	0x3c9649af	0.018345682
97	0x3da726c1	0.081616886
98	0x3e2a0df0	0.16606879
99	0xbdf9772a	-0.12180932
100	0xbe20016b	-0.15625541
101	0x3cebe5a4	0.028796025
102	0xbe041cf3	-0.12901668
103	0xbd2e2bf8	-0.0425224
104	0xbdd62c82	-0.10457708
105	0xbe05a518	-0.1305126
106	0x3d95390d	0.07286272
107	0x3d2f9ee7	0.04287615
108	0x3cda98c0	0.026684165
109	0x3d6f3b93	0.058406424
110	0x3e283856	0.1642774
111	0x3ce4ce2c	0.027930342
112	0xbd8c4073	-0.0684823
113	0x3d85371f	0.06504654
114	0x3e3bd171	0.18341614
115	0x3e264809	0.16238417
116	0x3e182657	0.14858375
117	0x3d4be3a1	0.04977763
118	0xbe06317d	-0.13104816
119	0x3e065f08	0.13122189
120	0x3df17dab	0.117915474
121	0xbdb955da	-0.09049578
122	0xbdbd5c1c	-0.09246084
123	0xbccabc70	-0.024748057
124	0x3e2042f0	0.15650535
125	0x3c832078	0.016006693
126	0x3d896fec	0.067108005
127	0x3bf06305	0.007336023
128	0xbd3e99d8	-0.046533436
129	0xbdaafae2	-0.08348633
130	0xbde64fc9	-0.112456866
131	0xbdf52819	-0.11970539
132	0x3c3b651d	0.0114376815
133	0x3babc990	0.005242534
134	0xbe43dbe5	-0.19126852
135	0x3d5e65b1	0.0542962
136	0xbbdca50d	-0.006733543
137	0xbda52efa	-0.08065601
138	0x3dee5da4	0.11638954
139	0xbde5f5ab	-0.11228498
140	0x3da8f417	0.082496814
141	0x3d05c153	0.03265507
142	0x3e03e1ca	0.128791
143	0x3c928174	0.017883994
144	0x3e2b149b	0.16707079
145	0xbda6e0c7	-0.081483416
146	0x3d17eeb4	0.03709288
147	0xbd961a19	-0.073291965
148	0x3cd6b8c2	0.026211146
149	0x3de964fc	0.11396214
150	0xbdc55abc	-0.09636447
151	0x3e453cd6	0.19261488
152	0x3d2a8b77	0.04163691
153	0xbbf7fd49	-0.0075680357
154	0xbdb92e7d	-0.0904207
155	0x3c2bd8d1	0.010488705
156	0xbd0144eb	-0.031559866
157	0xbdf179d2	-0.117908135
158	0x3d5ce21f	0.053926583
159	0xbd44994e	-0.047997765
160	0xbc9724ee	-0.018450227
161	0xbdd54133	-0.104128264
162	0xbcfcd497	-0.03086309
163	0x3df896de	0.12138151
164	0x3e1c6db5	0.15276225
165	0xbdc61337	-0.09671634
166	0xbd14f577	-0.036366906
167	0x3d865016	0.06558244
168	0x3d42b7e6	0.04753866
169	0x3aef5e1e	0.0018262302
170	0x3bf01849	0.0073271138
171	0xbe46221f	-0.19348954
172	0x3e3389ae	0.1753299
173	0xbda18775	-0.078871645
174	0xbcb34dab	-0.02188762
175	0xbde96a62	-0.11397244
176	0xbc5497af	-0.012975617
177	0x3d8f7f87	0.07006746
178	0xbd6188b1	-0.055062
179	0x3d62f2cd	0.055407334
180	0xbc983af1	-0.018582793
181	0x3d33de5d	0.043913234
182	0xbe2c64f7	-0.1683539
183	0x3e2ed229	0.17072357
184	0xbd166636	-0.03671857
185	0x3c804595	0.01565818
186	0xbd0f8934	-0.035042956
187	0x3bd1fb08	0.006408099
188	0xbd02b5ef	-0.031911787
189	0xbdbf5666	-0.09342651
190	0xbd7143f0	-0.05890268
191	0x3dc8a13c	0.09796378
192	0xbd319630	-0.04335612
193	0x3d9875c6	0.074443385
194	0x3cb6f390	0.022332937
195	0xbd90fa93	-0.07079043
196	0x3b68abd9	0.003550282
197	0x3d5a3630	0.053274333
198	0xbdff87ff	-0.12477111
199	0xbc4b12f3	-0.012394655
200	0xbe3fceca	-0.18731228
201	0x3e15b2b9	0.14618959
202	0x3c3e55d4	0.011617143
203	0xbd2330fd	-0.03984164
204	0xbdc139a4	-0.09434822
205	0x3dd27587	0.10276323
206	0x3d8bacbe	0.06820057
207	0x3dfb7806	0.12278752
208	0x3d9fa875	0.077958025
209	0x3e0c1d2a	0.13683
210	0x3e6882db	0.22706167
211	0xbd6ea1a1	-0.05825961
212	0x3c985a46	0.018597733
213	0x3e0cdc8e	0.1375601
214	0x3df3cf70	0.119048
215	0x3e2b226d	0.16712351
216	0x3dda2ade	0.106527075
217	0x3daa4032	0.083130255
218	0xbde03175	-0.10946933
219	0x3de5e9f3	0.11226263
220	0x3cf95efe	0.030440804
221	0x3c6d32c1	0.014477433
222	0xbd86d729	-0.06584007
223	0x3cfe87de	0.031070646
224	0x3e8a20fd	0.26978293
225	0x3db7ad2a	0.08968575
226	0xbae386bc	-0.001735888
227	0x3be2a0e0	0.0069161505
228	0xbda71ec2	-0.081601635
229	0xbd81ef9c	-0.0634453
230	0x3c97b68e	0.018519666
231	0x3b455663	0.0030111305
232	0x3e256ce2	0.16154817
233	0x3decd6a9	0.11564381
234	0xbe04262d	-0.12905188
235	0xbd07212f	-0.03299063
236	0x3daf8417	0.08570116
237	0x3db74759	0.08949155
238	0x3e321eb9	0.17394532
239	0xbced3f1e	-0.02896076
240	0xbe088380	-0.13331413
241	0x3c1e9299	0.009678506
242	0x3ddae969	0.10689051
243	0xbdb24072	-0.08703698
244	0x3e68090a	0.22659698
245	0xbdc544d1	-0.09632266
246	0x3a116a86	0.0005547184
247	0xbc68de99	-0.014213228
248	0x3dac7b44	0.084219486
249	0x3e0f4c93	0.13994054
250	0xbe1803b2	-0.1484516
251	0x3d174933	0.036935043
252	0xbd044c79	-0.032299493
253	0xbd7b31a2	-0.06132663
254	0x3d5cbb17	0.05388936
255	0x3d12cc4e	0.03583937

model.3.bias f4 [10]
0	0xbc243b74	-0.01002394
1	0xbe40c14e	-0.1882374
2	0x3ebb4978	0.3657949
3	0x3f0f0ff4	0.5588372
4	0x3d9e29d5	0.077228226
5	0x3eedb3bc	0.4642619
6	0xbdf317f5	-0.11869804
7	0xbd858943	-0.06520321
8	0xbec829bc	-0.3909434
9	0xbed9a37f	-0.4250755
